HAR_android/app/src/main/assets/model_4.tflite (tflite, 684520 bytes, 70 tensors)

model/batch_normalization/batchnorm/add_1;model/conv1d/conv1d/Squeeze;model/batch_normalization/batchnorm/mul_1;model/conv1d/BiasAdd;model/conv1d/BiasAdd/ReadVariableOp/resource;model/batch_normalization/batchnorm/mul;model/batch_normalization/batchnorm/sub;model/conv1d/conv1d f4 [64]
-0.05251714 -0.0083577335 -0.07246622 -0.021439228 -0.030980933 -0.07252696 -0.042590115 0.008749028
-0.16539955 0.021065786 -0.052521706 -0.032300454 -0.08042993 -0.001911215 -0.076954484 -0.043792717
-0.083386764 0.00928502 -0.1038129 -0.084678166 0.00573504 -0.15174966 -0.030513305 -0.18089263
-0.004392743 0.10186525 0.010698297 0.08139256 0.02881437 -0.0289238 -0.010744733 -0.003891402
-0.05694901 0.07028873 -0.055324253 -0.024800211 -0.15386528 -0.092934586 0.1154037 -0.023207348
0.06154594 -0.060909398 -0.10156232 -0.1111873 0.011837633 -0.022163548 -0.15579638 -0.0774824
-0.03666025 -0.045417223 -0.093655676 0.016280519 -0.20576471 -0.15274167 -0.13765316 -0.06328046
-0.11362797 -0.025139501 -0.06197071 0.06831869 -0.04504212 -0.036822997 -0.12794852 -0.20379624
00000000: 361c 57bd e0ee 08bc 2b69 94bd 52a1 afbc
00000010: bacb fdbc 0489 94bd f972 2ebd 1558 0f3c
00000020: 805e 29be 2892 ac3c 0021 57bd 7b4d 04bd
00000030: 72b8 a4bd bc81 faba 509a 9dbd fe5f 33bd
00000040: aec6 aabd 3220 183c dc9b d4bd bf6b adbd
00000050: 01ed bb3b 4364 1bbe 0af7 f9bc eb3b 39be
00000060: 00f1 8fbb ba9e d03d e947 2f3c 24b1 a63d
00000070: 1d0c ec3c 9bf1 ecbc ad0a 30bc e406 7fbb
00000080: 5d43 69bd 8af3 8f3d af9b 62bd d029 cbbc
00000090: dc8e 1dbe 7d54 bebd c658 ec3d 561d bebc
000000a0: 9817 7c3d 227c 79bd e8ff cfbd 2bb6 e3bd
000000b0: a2f2 413c 5490 b5bc 1689 1fbe 18af 9ebd
000000c0: 0f29 16bd 6907 3abd 8cce bfbd b95e 853c
000000d0: fcb3 52be 5068 1cbe f3f4 0cbe 3099 81bd
000000e0: c8b5 e8bd 5bf1 cdbc 00d5 7dbd abea 8b3d
000000f0: 167e 38bd b6d3 16bd f004 03be f6af 50be

model/batch_normalization/batchnorm/mul_1;model/conv1d/conv1d/Squeeze;model/conv1d/BiasAdd;model/conv1d/BiasAdd/ReadVariableOp/resource;model/batch_normalization/batchnorm/mul;model/conv1d/conv1d f4 [64, 1, 3, 6]
0.033713542 0.33760917 0.0021680333 -0.49596772 0.54398316 -0.06580786 -0.40453237 -0.3035724
-0.028201345 -0.42693764 -0.12024988 -0.112449765 -0.49816558 -0.103307374 -0.2663818 0.07710502
-0.17014237 0.29934943 0.20437564 -0.13160594 -0.040535897 -0.24003358 -0.15431021 -0.4836723
-0.07122715 0.1932081 -0.04330652 -0.2274958 -0.3407134 -0.29409197 0.21162948 0.04030268
0.06553191 -0.18875548 0.0053923847 -0.54296005 0.6219976 0.119224146 0.23809464 -0.089138724
-0.26654634 0.4408081 0.053853452 0.34002957 -0.16108492 -0.02903849 0.49660364 -0.075117104
0.42716733 0.23859723 -0.36107424 0.09729543 -0.14600927 -0.19040984 -0.2985207 0.0074747843
-0.13082492 -0.27206942 -0.49087465 0.023440052 -0.2702775 -0.10572409 0.13306063 -0.30975112
-0.51620114 -0.12936613 -0.18667896 0.0076634027 -0.2917735 0.06551101 -0.043518033 -0.09956956
0.115522504 0.08101631 -0.081641175 0.4260048 -0.3750121 -0.49095598 0.046839904 -0.15634365
0.1352957 0.3253 -0.20984147 -0.098976485 0.5026434 0.36438155 0.20145555 0.63011074
0.19308548 0.16049884 0.3223303 -0.25093156 0.47264552 -0.2658725 -0.08818482 -0.57202274
-0.012815888 0.24227388 -0.19247405 -0.48872524 0.11878046 -0.6145451 0.0005098824 0.11492161
-0.23313771 -0.032607984 0.6287939 0.032009497 -0.2620654 0.16238385 0.06666021 0.29067868
0.35741833 -0.26577592 0.2647834 0.17369151 -0.19391085 0.14225605 0.4309232 0.11068408
0.1503974 0.17347543 -0.049998548 0.4453981 -0.11049339 -0.1620952 0.1975498 -0.09841809
0.07497956 -0.38229576 -0.30800343 0.10277054 -0.11803421 -0.15729386 0.16964579 -0.5658932
-0.03973542 -0.13125293 -0.077748656 -0.2007014 0.12950392 -0.2901126 -0.27441803 -0.0017858446
0.17157644 0.042093266 0.023672165 -0.033013906 0.20994346 0.05882573 0.40650898 0.31829718
-0.33698255 0.16256878 0.01941395 -0.394569 0.39331874 0.047858845 0.21086207 -0.3792386
-0.11405551 -0.3069691 -0.0033430068 -0.07647656 0.05129088 -0.36817396 0.17090215 -0.12556839
-0.11401128 -0.20956944 0.08303306 -0.5014155 -0.15348181 0.22213908 -0.08482658 0.16684785
-0.23177047 -0.6194569 0.08530945 0.10869122 -0.5111208 -0.09981623 0.021460755 -0.106619045
-0.082366005 -0.01344968 -0.42313525 -0.2250906 0.118852146 -0.40080073 0.13105287 -0.017478509
-0.2525344 -0.10910031 -0.33709624 -0.4991699 -0.0123222945 0.21166599 0.34666055 -0.23690493
-0.14897217 -0.28236032 -0.54707843 0.6072121 -0.47248065 -0.35083792 -0.14318648 0.3520649
0.25111353 0.035550687 -0.46110877 -0.18305951 0.25035945 -0.0591882 0.48709762 -0.7016077
0.0006905543 0.12672935 -0.25573525 -0.5613343 0.33618185 0.27287534 0.08318038 0.02724667
0.22295877 -0.23722212 0.24823627 -0.27827868 0.12901162 -0.15513377 0.20737997 -0.15370779
0.23592676 -0.24321775 -0.41806707 -0.18465774 -0.26190972 0.031951226 -0.6784232 -0.107889175
-0.026088007 -0.0827599 -0.07056263 -0.008448734 -0.563119 0.42423064 -0.35109186 0.1842032
0.10175583 -0.08817094 0.44627956 -0.09172787 0.30481496 0.21541905 0.23442844 -0.078371875
00000000: 3617 0a3d 1cdb ac3e 9015 0e3b 7bef fdbe
00000010: 7b42 0b3f 45c6 86bd de1e cfbe d76d 9bbe
00000020: 8206 e7bc 9297 dabe 9245 f6bd 104c e6bd
00000030: 8f0f ffbe d192 d3bd 3263 88be 3de9 9d3d
00000040: cd39 2ebe 5444 993e d947 513e b5c3 06be
00000050: f808 26bd 5dcb 75be 7f03 1ebe e5a3 f7be
00000060: 8adf 91bd 58d8 453e 2d62 31bd a9f4 68be
00000070: fd71 aebe 3993 96be 66b5 583e 6c14 253d
00000080: 9835 863d 1e49 41be 9ab2 b03b 6eff 0abf
00000090: 3c3b 1f3f ca2b f43d 15cf 733e 5d8e b6bd
000000a0: c378 88be 99b1 e13e 7095 5c3d 5b18 ae3e
000000b0: 72f3 24be 21e2 edbc d542 fe3e ffd6 99bd
000000c0: adb5 da3e d552 743e b9de b8be d442 c73d
000000d0: 7483 15be ccfa 42be b5d7 98be 09ef f43b
000000e0: f8f6 05be af4c 8bbe ec53 fbbe 5a05 c03c
000000f0: d061 8abe df85 d8bd 0c41 083e b397 9ebe
00000100: c225 04bf 8e78 04be c528 3fbe 481d fb3b
00000110: 5663 95be a32a 863d f73f 32bd 20eb cbbd
00000120: 1097 ec3d e1eb a53d 7d33 a7bd 4d1d da3e
00000130: 9601 c0be 955e fbbe 33db 3f3d 8d18 20be
00000140: f58a 0a3e b98d a63e afe0 56be 2fb4 cabd
00000150: 3dad 003f 3890 ba3e 5d4a 4e3e f04e 213f
00000160: 33b8 453e cf59 243e 7a08 a53e 1a7a 80be
00000170: 98fe f13e 7120 88be 3e9a b4bd 1570 12bf
00000180: bbf9 51bc a516 783e eb17 45be 323a fabe
00000190: 2b43 f33d d452 1dbf a1a9 053a 055c eb3d
000001a0: a7bb 6ebe f38f 05bd a3f8 203f 641c 033d
000001b0: 702d 86be f447 263e 2685 883d d6d3 943e
000001c0: 89ff b63e c813 88be b191 873e 30dc 313e
000001d0: 9190 46be 92ab 113e f7a1 dc3e 56ae e23d
000001e0: c701 1a3e 8ba3 313e 47cb 4cbd 380b e43e
000001f0: 5c4a e2bd 49fc 25be 7f4a 4a3e 6c8f c9bd
00000200: e28e 993d 45bc c3be a0b2 9dbe 5c79 d23d
00000210: ebbb f1bd a411 21be a0b7 2d3e 60de 10bf
00000220: 9cc1 22bd 2b67 06be b03a 9fbd ab84 4dbe
00000230: ad9c 043e a489 94be 8580 8cbe 0013 eaba
00000240: bcb1 2f3e fd69 2c3d 21ec c13c 9739 07bd
00000250: 6bfb 563e 40f3 703d f221 d03e d9f7 a23e
00000260: fa88 acbe 6e78 263e 010a 9f3c f304 cabe
00000270: 1361 c93e a307 443d 3aec 573e 902b c2be
00000280: ef95 e9bd 0e2b 9dbe 5916 5bbb be9f 9cbd
00000290: 6316 523d 4c81 bcbe f900 2f3e 0095 00be
000002a0: bf7e e9bd 5f99 56be 3d0d aa3d c45c 00bf
000002b0: 562a 1dbe 6d78 633e 8fb9 adbd 2ada 2a3e
000002c0: 3d55 6dbe ba94 1ebf b9b6 ae3d 8199 de3d
000002d0: d0d8 02bf 746c ccbd 77ce af3c 165b dabd
000002e0: 82af a8bd 0c5c 5cbc 2fa5 d8be 267e 66be
000002f0: c168 f33d c135 cdbe b932 063e 172f 8fbc
00000300: 304c 81be fc6f dfbd e197 acbe 3293 ffbe
00000310: 73e3 49bc f8be 583e 7e7d b13e 3597 72be
00000320: 298c 18be 8891 90be 550d 0cbf 4172 1b3f
00000330: fce8 f1be 07a1 b3be 7a9f 12be da41 b43e
00000340: f491 803e 999d 113d 7316 ecbe f473 3bbe
00000350: 1d2f 803e 536f 72bd dc64 f93e 909c 33bf
00000360: 5106 353a 57c5 013e bbef 82be 9bb3 0fbf
00000370: 0720 ac3e 51b6 8b3e 7a5a aa3d 6934 df3c
00000380: 4e4f 643e 5bea 72be a631 7e3e 8b7a 8ebe
00000390: 9f1b 043e 63db 1ebe 6a5b 543e 9365 1dbe
000003a0: c996 713e 130e 79be e30c d6be eb16 3dbe
000003b0: 0819 86be 4adf 023d 25ad 2dbf 00f5 dcbd
000003c0: 84b6 d5bc 067e a9bd 2483 90bd 8f6c 0abc
000003d0: 9128 10bf c234 d93e 50c2 b3be c39f 3c3e
000003e0: 5c65 d03d f792 b4bd c17e e43e d2db bbbd
000003f0: b510 9c3e d096 5c3e 020e 703e 6f81 a0bd

model/dense_25/BiasAdd/ReadVariableOp/resource f4 [12]
0.064598784 -0.016462145 -0.09222057 0.11930739 0.046909973 0.15533486 -0.4148638 -0.40040958
-0.11336333 -0.3939122 -0.1275997 -0.39981827
00000000: 5e4c 843d 9fdb 86bc 23de bcbd 6f57 f43d
00000010: ac24 403d 1a10 1f3e 0769 d4be 7c02 cdbe
00000020: 092b e8bd dcae c9be 7fa9 02be fbb4 ccbe

model/transformer_block/32567 f4 [64]
0.07304891 -0.029207382 0.0023953035 0.06463936 -0.0062369076 0.14515258 -0.010279532 -0.0509728
0.015059661 -0.06916161 -0.07655253 0.06460575 0.07521986 -0.0054923985 0.09517434 0.036256272
0.042135786 -0.020347426 0.021156132 -0.0003590134 -0.03339898 -0.019122915 -0.04322738 0.083799526
0.09050255 -0.04542002 0.061332602 -0.0326929 -0.17003424 -0.0817705 0.022282956 -0.03824028
0.06291681 0.00066126813 0.16899998 -0.05428676 0.06744979 -0.016643913 -0.034037106 0.026230246
-0.12095563 -0.04490263 -0.052051917 0.032094162 -0.045157295 -0.06279386 -0.13039036 0.032523286
0.110044725 -0.05122687 -0.027111745 0.0046399166 0.094203934 -0.018696608 0.010928152 0.051482055
-0.004944409 0.09033079 -0.009218814 0.0032614986 0.12891865 0.15678644 -0.0055130166 -0.008370879
00000000: ab9a 953d 5244 efbc 86fa 1c3b a461 843d
00000010: f95e ccbb e1a2 143e 7b6b 28bc dbc8 50bd
00000020: ccbc 763c 9aa4 8dbd 93c7 9cbd 0550 843d
00000030: df0c 9a3d 94f9 b3bb c4ea c23d 7581 143d
00000040: 9396 2c3d a5af a6bc a04f ad3c f639 bcb9
00000050: 5ecd 08bd a9a7 9cbc 310f 31bd 169f ab3d
00000060: 6759 b93d 580a 3abd e537 7b3d fee8 05bd
00000070: 751d 2ebe 4b77 a7bd bf8a b63c d7a1 1cbd
00000080: 87da 803d f458 2d3a 550e 2d3e cb5b 5ebd
00000090: 1e23 8a3d d158 88bc 7e6a 0bbd d0e0 d63c
000000a0: 96b7 f7bd d2eb 37bd 6434 55bd 2b75 033d
000000b0: dbf6 38bd 119a 80bd 0d85 05be 2337 053d
000000c0: 215f e13d 44d3 51bd 7319 debc 710a 983b
000000d0: feed c03d a129 99bc fe0b 333c d9de 523d
000000e0: b504 a2bb 59ff b83d 820a 17bc debe 553b
000000f0: 4003 043e a08c 203e 89a6 b4bb 0326 09bc

model/transformer_block/32571 f4 [64]
0.12433547 -0.013934277 -0.02457764 -0.04840566 0.0026199392 0.02517985 -0.032349594 -0.007113873
-0.01247894 0.1015089 0.017758466 -0.056100726 -0.063540295 0.026434882 0.018653478 0.111269556
-0.02854244 -0.018121503 -0.006980897 0.045923032 -0.13091443 0.16065292 -0.10340673 -0.045542743
0.09638772 0.016776253 -0.026747705 0.04095084 -0.1094111 -0.05010703 -0.0059253382 -0.17173496
0.06936252 0.0717197 -0.09017169 0.07488903 0.003930435 0.015208866 -0.112996176 0.117511176
0.022400094 0.0010417544 -0.051324423 -0.09796436 0.0022688343 -0.033977393 0.10595136 0.07119763
0.09139375 0.08283952 0.008094218 -0.092839636 -0.04726507 -0.13320594 -0.016505443 0.01087388
-0.11810063 -0.06359875 0.013157917 -0.056175314 -0.044221655 -0.06893514 -0.0031505143 -0.10663676
00000000: 98a3 fe3d 984c 64bc 0c57 c9bc 0345 46bd
00000010: 49b3 2b3b f945 ce3c 0281 04bd 7e1b e9bb
00000020: 7874 4cbc e6e3 cf3d 347a 913c e0c9 65bd
00000030: 6a21 82bd f78d d83c 2ecf 983c 4be1 e33d
00000040: d6d1 e9bc 8c73 94bc 02c0 e4bb ca19 3c3d
00000050: 6f0e 06be 3382 243e e8c6 d3bd 078b 3abd
00000060: ed66 c53d 5a6e 893c 011e dbbc 11bc 273d
00000070: ed12 e0bd 073d 4dbd 5729 c2bb 4adb 2fbe
00000080: f00d 8e3d c7e1 923d efab b8bd 6b5f 993d
00000090: e1ca 803b 9c2e 793c 8a6a e7bd b3a9 f03d
000000a0: 6780 b73c 7a8b 883a 8f39 52bd 8aa1 c8bd
000000b0: b9b0 143b e12b 0bbd 07fd d83d 10d0 913d
000000c0: a52c bb3d c4a7 a93d 9c9d 043c b522 bebd
000000d0: 0599 41bd 2367 08be 6c36 87bc 5c28 323c
000000e0: bede f1bd 1040 82bd 4e94 573c 1618 66bd
000000f0: c421 35bd de2d 8dbd dc78 4ebb 6064 dabd

model/transformer_block/32575 f4 [64]
0.085593306 0.009458327 -0.010209476 0.0002857174 -0.013833416 -0.07234481 -0.0037333658 -0.022439588
0.04662717 0.07032369 0.02646136 0.13030946 -0.03365931 0.01221082 -0.025611486 0.0061376626
0.034017358 0.06989533 -0.07040803 -0.040046178 0.007189206 0.014471472 -0.054047868 0.028841732
-0.03748932 0.032772858 0.027347015 -0.019801239 -0.016223228 0.030281134 0.03851001 -0.109688245
0.1068139 0.011458481 0.035843905 -0.067705564 -0.014963785 -0.04203264 0.061007243 0.067089275
-0.038560048 0.06950502 -0.006198103 -0.0382773 0.035325803 -0.036259763 0.015917819 0.013555174
0.04461159 0.002465428 0.023405027 -0.015870607 0.07251896 0.030603658 0.015312022 -0.007489505
0.020147484 0.014680371 0.045243945 0.08130271 0.14430098 0.015010977 -0.046697162 -0.04421822
00000000: 8b4b af3d 19f7 1a3c a545 27bc 57cc 9539
00000010: 8da5 62bc 8429 94bd 7cab 74bb 3ad3 b7bc
00000020: 22fc 3e3d de05 903d 7ec5 d83c d86f 053e
00000030: 58de 09bd e40f 483c 2ecf d1bc 721e c93b
00000040: c955 0b3d 4825 8f3d 1632 90bd 7607 24bd
00000050: 6e93 eb3b c119 6d3c 4c61 5dbd 7f45 ec3c
00000060: 678e 19bd d53c 063d d906 e03c 3536 a2bc
00000070: 93e6 84bc 2410 f83c acbc 1d3d 3ba4 e0bd
00000080: 3fc1 da3d 5abc 3b3c 0fd1 123d 37a9 8abd
00000090: aa2a 75bc 6b2a 2cbd bbe2 793d 1a66 893d
000000a0: 24f1 1dbd a658 8e3d 7519 cbbb a8c8 1cbd
000000b0: cab1 103d 1e85 14bd 1666 823c 8516 5e3c
000000c0: a5ba 363d 0593 213b e6bb bf3c 1303 82bc
000000d0: d284 943d 86b4 fa3c 46df 7a3c 866a f5bb
000000e0: 560c a53c f085 703c b751 393d 0982 a63d
000000f0: a3c3 133e 9af0 753c 8645 3fbd 2a1e 35bd

model/transformer_block/32579 f4 [64]
0.03862648 -0.02044149 0.056789175 -0.024184734 -0.0240806 -0.013209028 0.07727421 -0.0049271705
0.0321608 0.04204428 -0.086147025 -0.052036285 -0.03444934 0.005804885 0.016949616 0.0007896983
0.06856596 -0.014306564 -0.001708346 0.010581796 0.12142089 -0.05132514 0.07753611 -0.04038964
-0.0046240487 -0.0039157323 0.042402666 0.015224019 0.032899484 0.063166074 -0.045672767 0.023121769
-0.017669851 0.03654547 -0.05389672 0.009863375 -0.080168314 -0.07542552 0.032881204 -0.06111986
-0.03151844 0.027594175 -0.010143959 0.07170894 0.0780419 0.021218132 0.01769201 -0.0507354
0.0007730061 -0.10767323 -0.118472554 -0.04564982 -0.029304564 0.083554186 0.0038489576 0.0019621793
0.023780331 -0.04677784 0.018133115 -0.015645865 0.08309568 0.02900384 -0.03313391 0.03064602
00000000: cd36 1e3d e974 a7bc c49b 683d 101f c6bc
00000010: ae44 c5bc ae6a 58bc f141 9e3d 1a74 a1bb
00000020: 0bbb 033d 9f36 2c3d da6d b0bd 0024 55bd
00000030: c01a 0dbd e836 be3b ecd9 8a3c c103 4f3a
00000040: 4f6c 8c3d 1466 6abc 94ea dfba 455f 2d3c
00000050: 84ab f83d 4f3a 52bd 41cb 9e3d 9b6f 25bd
00000060: 5585 97bb 8b4f 80bb 6bae 2d3d 2a6e 793c
00000070: 9cc1 063d 375d 813d 5e13 3bbd dd69 bd3c
00000080: 5dc0 90bc b4b0 153d cfc2 5cbd fe99 213c
00000090: 492f a4bd b278 9abd 71ae 063d d158 7abd
000000a0: 7b19 01bd 2e0d e23c d932 26bc 23dc 923d
000000b0: 6fd4 9f3d a6d1 ad3c d6ee 903c eccf 4fbd
000000c0: 90a3 4a3a c883 dcbd bda1 f2bd 4efb 3abd
000000d0: 2010 f0bc 751e ab3d cb3e 7c3b e897 003b
000000e0: f8ce c23c 1f9a 3fbd e68b 943c c22b 80bc
000000f0: 112e aa3d 7699 ed3c 6cb7 07bd 5d0d fb3c

model/transformer_block/32581 f4 [64]
0.9704585 1.070575 1.014381 1.0170771 1.17773 1.1061878 0.92166597 0.9387385
0.9270392 0.95222265 1.0329903 0.9990082 1.0208495 0.9524258 1.0178357 1.14495
0.8612961 1.240291 1.1915601 1.0109658 0.98782825 0.9779171 0.99845374 0.9538677
1.2463905 1.1851534 0.957838 1.0831889 0.9356268 0.9535763 0.8754238 1.0080185
0.95918226 0.99550974 0.9787716 0.9196396 0.9790046 0.9047819 1.2146984 0.969324
1.0855863 0.98029363 0.8432337 0.7972879 1.0226694 1.0923016 0.8785364 0.9202041
0.976098 1.0838258 0.9992396 1.1330411 0.88411236 0.94886094 1.0378889 1.0705448
0.9842609 0.9365367 1.034735 1.1893753 0.92442966 0.8672126 0.9467791 0.9183262
00000000: f86f 783f 9a08 893f 3dd7 813f 952f 823f
00000010: dbbf 963f 9097 8d3f 4df2 6b3f 2b51 703f
00000020: 7152 6d3f ddc4 733f 0739 843f 00bf 7f3f
00000030: 32ab 823f 2dd2 733f 7148 823f b98d 923f
00000040: e77d 5c3f dbc1 9e3f 0b85 983f 5467 813f
00000050: 50e2 7c3f c658 7a3f aa9a 7f3f ac30 743f
00000060: b989 9f3f 1bb3 973f df34 753f efa5 8a3f
00000070: 3d85 6f3f 941d 743f c61b 603f c006 813f
00000080: f88c 753f bad9 7e3f c790 7a3f 806d 6b3f
00000090: 0ca0 7a3f c99f 673f 3d7b 9b3f 9e25 783f
000000a0: 7ef4 8a3f 86f4 7a3f 2ade 573f 0f1b 4c3f
000000b0: d5e6 823f 8ad0 8b3f c3e7 603f 7f92 6b3f
000000c0: 8fe1 793f ceba 8a3f 2bce 7f3f 7e07 913f
000000d0: 3055 623f 8de8 723f 8bd9 843f 9d07 893f
000000e0: 86f8 7b3f dfc0 6f3f 3272 843f 733d 983f
000000f0: 6ca7 6c3f a501 5e3f 1d60 723f 6d17 6b3f

model/transformer_block/32583 f4 [64]
-0.0024431357 0.05810615 0.039516248 -0.039921023 0.005257421 -0.044647995 0.1618468 -0.023684604
0.12016097 -0.025161197 -0.04284964 0.029952178 0.05133108 -0.0012656907 -0.09981544 0.014825928
0.08421531 -0.01675765 0.03630039 0.05239326 0.032553717 -0.034225814 0.022797313 -0.14134502
-0.044878807 -0.0063537112 0.02043703 0.011996483 0.014546717 0.02371068 -0.027358823 0.023649529
-0.053558514 0.04775251 -0.070562266 -0.015302686 0.037646554 0.04642273 0.023089644 -0.01319409
-0.06335931 0.092600495 -0.08486579 0.09842535 0.06911576 0.12060709 -0.057281237 0.015012376
0.036726955 -0.045993824 -0.011489935 -0.050491154 -0.11492173 -0.0056572193 0.036724024 -0.033769786
-0.04282521 0.038350716 0.027079193 0.00923949 0.04737534 0.12831376 -0.07991799 -0.06781649
00000000: 041d 20bb b700 6e3d cadb 213d 3a84 23bd
00000010: 7246 ac3b d1e0 36bd 2bbb 253e 3706 c2bc
00000020: f416 f63d db1e cebc 1b83 2fbd 455e f53c
00000030: 8a40 523d 88e5 a5ba 0a6c ccbd 73e8 723c
00000040: 1479 ac3d 5747 89bc b8af 143d 519a 563d
00000050: 0c57 053d 5e30 0cbd 6ec1 ba3c c0bc 10be
00000060: d7d2 37bd cb32 d0bb 8f6b a73c e68c 443c
00000070: 5a55 6e3c e63c c23c 9c1f e0bc a8bc c13c
00000080: 2c60 5bbd 2398 433d f382 90bd 1eb8 7abc
00000090: 4633 1a3d c325 3e3d 7e26 bd3c 062c 58bc
000000a0: 87c2 81bd 54a5 bd3d 1ece adbd 3b93 c93d
000000b0: 908c 8d3d da00 f73d bb9f 6abd 78f6 753c
000000c0: 016f 163d 0564 3cbd 4840 3cbc d0cf 4ebd
000000d0: 155c ebbd 3260 b9bb ee6b 163d 3052 0abd
000000e0: 7d69 2fbd a415 1d3d 2fd5 dd3c 3b61 173c
000000f0: a50c 423d af64 033e 0bac a3bd 5fe3 8abd

model/transformer_block/32587 f4 [128]
-0.1110142 -0.0017108633 -0.14252378 -0.016320467 -0.06573169 -0.06813334 -0.12189228 -0.075074024
-0.11539782 -0.08970796 -0.07622585 -0.09273905 -0.06670314 -0.020109024 -0.103503026 -0.14988893
-0.13543104 -0.05921308 -0.1197494 -0.10983913 -0.09547535 -0.11261806 -0.016090607 -0.057245277
-0.12492591 -0.019554703 -0.12940295 -0.09175222 -0.10831375 -0.12804997 -0.068905756 -0.12777628
-0.088317096 -0.11612788 -0.039249953 -0.06682918 -0.091252305 -0.12398431 -0.06075099 -0.19614217
-0.10798533 0.011228574 -0.12369039 -0.04491845 -0.079448506 -0.1310023 -0.08220556 -0.12192206
-0.10646755 -0.090155035 -0.084518224 -0.16161382 -0.14805202 -0.032202013 -0.08902084 -0.12806153
-0.09550336 -0.022194289 -0.023810348 -0.059711337 -0.08207918 -0.064751916 -0.12593871 -0.05975497
-0.10919035 -0.08610958 -0.024673732 -0.10065034 -0.051159937 -0.11893165 -0.13645662 -0.13555454
-0.10459655 -0.18547022 -0.06564135 -0.11451658 -0.09479354 -0.06602222 -0.08615063 -0.055476405
-0.098448314 -0.05382076 -0.043080896 -0.10520148 -0.11150738 -0.09672581 -0.10222854 -0.0333502
-0.034829523 -0.045934796 -0.086930566 -0.13246351 -0.012617818 -0.101899736 -0.113461494 -0.09347356
-0.078056 -0.05281477 -0.13261534 -0.074801415 -0.042907126 -0.14845848 -0.06620468 -0.07800527
-0.033265073 -0.12739618 -0.041146833 -0.110332824 -0.15516293 -0.022973727 -0.13887286 -0.052702278
-0.09407092 -0.13697483 -0.10087081 -0.088297166 -0.062264904 -0.06209231 -0.07581533 -0.10286162
-0.07374725 -0.04734553 -0.07113664 -0.06319363 -0.11231893 -0.08098475 -0.07879879 -0.15962107
00000000: 6a5b e3bd 0c3f e0ba c1f1 11be 80b2 85bc
00000010: 569e 86bd 7e89 8bbd a9a2 f9bd 69c0 99bd
00000020: b155 ecbd cfb8 b7bd 4c1c 9cbd f9ed bdbd
00000030: a89b 88bd aebb a4bc 65f9 d3bd 7c7c 19be
00000040: 6fae 0abe 6a89 72bd 2c3f f5bd 56f3 e0bd
00000050: 9588 c3bd 4ca4 e6bd 73d0 83bc 067a 6abd
00000060: 28d9 ffbd 2f31 a0bc 3582 04be 97e8 bbbd
00000070: 99d3 ddbd 881f 03be 761e 8dbd c9d7 02be
00000080: 98df b4bd 74d4 edbd 8fc4 20bd bddd 88bd
00000090: 7de2 babd 7ceb fdbd 08d6 78bd 7ed9 48be
000000a0: 6a27 ddbd 0ef8 373c 6351 fdbd 69fc 37bd
000000b0: e6b5 a2bd 7825 06be 635b a8bd 46b2 f9bd
000000c0: a90b dabd 34a3 b8bd e417 adbd 187e 25be
000000d0: f39a 17be 42e6 03bd 8f50 b6bd 9022 03be
000000e0: 4497 c3bd ccd0 b5bc eb0d c3bc e093 74bd
000000f0: 2119 a8bd a79c 84bd 14f6 00be a1c1 74bd
00000100: 319f dfbd 385a b0bd 9120 cabc c421 cebd
00000110: 158d 51bd 7092 f3bd 49bb 0bbe cfce 0abe
00000120: b736 d6bd e8eb 3dbe f96e 86bd ab87 eabd
00000130: 1e23 c2bd a836 87bd be6f b0bd 3a3b 63bd
00000140: 459f c9bd 2873 5cbd 9875 30bd e073 d7bd
00000150: fb5d e4bd 2e18 c6bd 325d d1bd 389a 08bd
00000160: 67a9 0ebd 2026 3cbd a708 b2bd 84a4 07be
00000170: f7ba 4ebc cfb0 d0bd 805e e8bd 116f bfbd
00000180: d3db 9fbd 4d54 58bd 51cc 07be 7c31 99bd
00000190: 62bf 2fbd 8005 18be 5296 87bd 3ac1 9fbd
000001a0: f540 08bd 2574 02be 9589 28bd 2df6 e1bd
000001b0: 08e3 1ebe 6633 bcbc b034 0ebe 58de 57bd
000001c0: 41a8 c0bd 2143 0cbe 5b95 cebd 25d5 b4bd
000001d0: 7c09 7fbd 8254 7ebd 1145 9bbd 1da9 d2bd
000001e0: cc08 97bd 63ed 41bd 16b0 91bd a96b 81bd
000001f0: 7807 e6bd 55db a5bd 4361 a1bd b573 23be

model/transformer_block/32591 f4 [64]
-0.058655802 0.038107313 0.060617827 0.00069087587 -0.026885597 -0.016887218 -0.002257413 0.020751532
0.041184817 -0.026257884 -0.02674393 -0.021214597 0.016616032 -0.003467162 0.022571854 -0.040562663
0.04897419 0.0027094404 0.0029612454 0.053147048 -0.0020338278 -0.009253872 -0.005693096 -0.0033864488
0.00540011 -0.006770473 0.0119720595 -0.054635182 0.011813885 0.026611345 0.0038069354 -0.015361677
-0.033861984 0.0029690946 -0.020884063 -0.028043708 0.009370335 0.006274291 -0.02371499 -0.006085396
-0.040707905 0.036816012 -0.037455365 0.045618054 0.011656189 -0.03212584 -0.04690041 0.023867475
0.0072241644 -0.023509713 -0.03202665 -0.010077795 0.037935734 -0.018601727 0.026828803 0.015391503
0.035078898 0.006101849 0.024964288 -0.013280799 0.05591878 -0.006256442 0.010163081 0.014353869
00000000: 1141 70bd 6a16 1c3d 664a 783d e51b 353a
00000010: 2f3f dcbc 1057 8abc 1bf1 13bb 1eff a93c
00000020: 69b1 283d c61a d7bc 1616 dbbc 3cca adbc
00000030: 581e 883c 5339 63bb 9ce8 b83c 0925 26bd
00000040: 2999 483d de90 313b 7411 423b b8b0 593d
00000050: f849 05bb 8d9d 17bc 278d babb 2fef 5dbb
00000060: 68f3 b03b d8da ddbb 7526 443c 24c9 5fbd
00000070: 068f 413c 0900 da3c c77d 793b 8baf 7bbc
00000080: ddb2 0abd 2495 423b 0e15 abbc ebbb e5bc
00000090: 0986 193c 9198 cd3b f045 c2bc 0068 c7bb
000000a0: 55bd 26bd 63cc 163d cc6a 19bd ffd9 3a3d
000000b0: 9af9 3e3c 6396 03bd a51a 40bd b985 c33c
000000c0: afb8 ec3b 7197 c0bc 602e 03bd 561d 25bc
000000d0: 8062 1b3d a662 98bc 14c8 db3c a52c 7c3c
000000e0: e4ae 0f3d 05f2 c73b e881 cc3c b597 59bc
000000f0: 170b 653d d702 cdbb 0d83 263c 7d2c 6b3c

model/transformer_block/32593 f4 [64]
0.97554815 1.0429115 0.96802026 1.0274509 1.1480299 1.016802 0.98556846 1.0495411
0.9387526 0.9585008 1.0012604 0.9167818 0.9802889 0.94677484 1.0836166 1.0187925
0.97990805 0.9850869 1.0259116 0.9111867 0.99818933 0.95697296 1.0135372 0.861454
1.2219775 0.9557047 0.9710508 1.0209818 0.983246 0.9421001 0.94065 1.0825987
0.97740203 0.8960526 1.010675 0.966263 0.9431139 0.8883082 1.0911973 0.96275556
1.0456378 0.98264384 0.82803214 0.8535103 1.0392262 0.9350266 0.8572234 0.92946404
0.9030842 0.98921335 1.0321014 1.0208738 0.8662886 0.8724245 1.0072762 1.029712
0.96781355 1.0350037 1.146045 0.96211636 0.86407906 0.9827847 0.91709316 0.8855303
00000000: 86bd 793f 207e 853f 2dd0 773f 8383 833f
00000010: a5f2 923f 9126 823f 374e 7c3f 5d57 863f
00000020: 1752 703f 4f60 753f 4d29 803f 36b2 6a3f
00000030: 37f4 7a3f d65f 723f f3b3 8a3f cb67 823f
00000040: 41db 7a3f a82e 7c3f 1251 833f 8843 693f
00000050: 5689 7f3f 2efc 743f 96bb 813f 4088 5c3f
00000060: c269 9c3f 10a9 743f c996 783f 88af 823f
00000070: 03b6 7b3f 792d 713f 70ce 703f 9892 8a3f
00000080: 0537 7a3f b463 653f cc5d 813f 035d 773f
00000090: ea6f 713f 2b68 633f 5aac 8b3f 2677 763f
000000a0: 76d7 853f 8c8e 7b3f eaf9 533f a77f 5a3f
000000b0: 5d05 853f e75d 6f3f fe72 5b3f 5bf1 6d3f
000000c0: 8730 673f 163d 7d3f e61b 843f feab 823f
000000d0: 17c5 5d3f 3657 5f3f 6dee 803f 9acd 833f
000000e0: a1c2 773f 007b 843f 9ab1 923f 424d 763f
000000f0: 4934 5d3f c797 7b3f 9ec6 6a3f 1db2 623f

model/transformer_block/32595 f4 [64]
0.033767212 0.015118906 -0.003188289 0.026689017 -0.059030704 -0.020527719 0.05238724 0.049731743
-0.041398756 0.059812732 0.0046922276 0.027941069 0.011132716 0.0067189247 -0.12214556 -0.03694039
0.05243275 -0.05893462 -0.026382416 -0.025546815 0.019543182 0.05579461 0.023138342 0.006652409
-0.013761106 -0.092407316 -0.017095828 -0.03809049 -0.04220909 0.002810296 0.024212595 0.024702027
-0.018383184 -0.013191751 -0.019850196 -0.057475265 -0.0041221157 0.080006495 -0.065474965 0.012209506
-0.023779366 -0.021435471 -0.036214657 0.07154659 -0.06638067 -0.0024715173 -0.09951803 0.043815624
0.018267943 0.043674905 -0.010529726 0.08467583 -0.0039756736 -0.014953962 0.0020602555 -0.026568882
0.027533522 0.014598188 0.06194259 -0.08229599 -0.05594433 0.07819147 0.043257177 0.034019392
00000000: 7d4f 0a3d 4ab5 773c 9df2 50bb eda2 da3c
00000010: 2eca 71bd bf29 a8bc 0194 563d 83b3 4b3d
00000020: be91 29bd 32fe 743d 42c1 993b abe4 e43c
00000030: ff65 363c 6d2a dc3b 7427 fabd ce4e 17bd
00000040: b9c3 563d 6e65 71bd f01f d8bc 8e47 d1bc
00000050: 0619 a03c e488 643d 9f8c bd3c 74fc d93b
00000060: 4376 61bc 0c40 bdbd 8d0c 8cbc c604 1cbd
00000070: 70e3 2cbd f12c 383b 7e59 c63c e85b ca3c
00000080: 5598 96bc 3722 58bc e19c a2bc 2f6b 6bbd
00000090: d012 87bb 72da a33d bd17 86bd 610a 483c
000000a0: f2cc c2bc 7199 afbc d255 14bd 0587 923d
000000b0: 97f2 87bd 2ef9 21bb 1cd0 cbbd 0378 333d
000000c0: a7a6 953c 75e4 323d df84 2cbc 866a ad3d
000000d0: 5e46 82bb 7601 75bc 5a05 073b fca6 d9bc
000000e0: fb8d e13c 3d2d 6f3c 83b7 7d3d cd8a a8bd
000000f0: e225 65bd d922 a03d 702e 313d eb57 0b3d

model/transformer_block_1/32600 f4 [64]
-0.13564995 -0.061251014 0.13588805 -0.039270483 0.10219448 -0.011508356 0.068078265 -0.11314642
-0.027979821 -0.097297736 -0.03522435 0.045566287 0.0077010305 -0.037472654 -0.065998174 0.10582436
-0.12107954 0.14993565 -0.023810567 -0.0300647 0.04488005 0.06287429 -0.010673567 -0.06294587
-0.07297792 -0.05446048 -0.008023712 0.07644489 0.09877309 0.036256623 0.11602634 0.06589802
-0.01709356 0.02929242 0.03507502 -0.1323347 -0.0875898 -0.091090746 0.16031772 0.07897265
-0.004884067 0.041567057 0.138304 -0.17257392 0.01284719 -0.108273774 0.050966125 0.3279616
-0.045309078 -0.047274325 0.22590649 0.0009698487 0.051223047 -0.015555239 0.098420545 0.054289747
0.042776037 -0.23464356 -0.093751356 -0.14653304 -0.0719727 -0.048854 -0.033721223 0.017867891
00000000: d2e7 0abe 58e2 7abd 3d26 0b3e 16da 20bd
00000010: 574b d13d 8b8d 3cbc 9e6c 8b3d 4fb9 e7bd
00000020: f035 e5bc 0944 c7bd 6847 10bd b7a3 3a3d
00000030: ed58 fc3b ed7c 19bd 0d2a 87bd 71ba d83d
00000040: 8df8 f7bd bb88 193e 610e c3bc 3f4a f6bc
00000050: 25d4 373d 3cc4 803d 2fe0 2ebc c4e9 80bd
00000060: 7375 95bd f411 5fbd e375 03bc 238f 9c3d
00000070: 8c49 ca3d d381 143d 389f ed3d 8bf5 863d
00000080: cb07 8cbc a8f6 ef3c d3aa 0f3d bf82 07be
00000090: 4862 b3bd c98d babd 542a 243e 6abc a13d
000000a0: 860a a0bb 3842 2a3d 909f 0d3e 38b7 30be
000000b0: 057d 523c a4be ddbd dbc1 503d 95ea a73e
000000c0: 0396 39bd b9a2 41bd 0854 673e 723d 7e3a
000000d0: 42cf 513d 67db 7ebc b690 c93d ed5e 5e3d
000000e0: ed35 2f3d 6746 70be b600 c0bd c20c 16be
000000f0: 6c66 93bd 221b 48bd 441f 0abd af5f 923c

model/transformer_block_1/32604 f4 [64]
0.11034291 0.16792884 -0.020330895 -0.04249364 0.06246953 0.09767531 -0.034675162 0.02196544
-0.047505286 -0.19189268 -0.03872621 -0.033488296 0.021178968 -0.0021536946 0.09233939 -0.058057457
0.07828932 -0.08137412 -0.05019943 0.07772287 0.040344287 0.037929907 -0.25413325 0.07297973
0.003933104 -0.07305369 -0.06214741 -0.0052991295 0.0059229457 -0.004305084 0.06384525 -0.025158858
-0.014989555 -0.022324473 -0.045451168 -0.06304386 0.09117418 0.1489605 -0.057063095 -0.022454374
0.070048004 0.06620766 -0.049848396 0.03157484 0.006273717 -0.012244422 0.052721467 0.092462294
-0.27927506 0.25572067 0.038303614 0.047718026 -0.10434438 0.17733006 0.057999242 -0.045816712
-0.027902264 -0.10502983 -0.0060320217 0.17789437 -0.1578408 -0.16045688 0.01674245 -0.4144118
00000000: 77fb e13d 8af5 2b3e fa8c a6bc d00d 2ebd
00000010: 0de0 7f3d fe09 c83d 8b07 0ebd def0 b33c
00000020: e794 42bd 847f 44be 609f 1ebd 062b 09bd
00000030: 847f ad3c 0025 0dbb 6f1c bd3d a8cd 6dbd
00000040: 2756 a03d 7aa7 a6bd eb9d 4dbd 2b2d 9f3d
00000050: 0d40 253d 645c 1b3d c11d 82be 6676 953d
00000060: 45e1 803b 2c9d 95bd 488e 7ebd 52a4 adbb
00000070: 4515 c23b a911 8dbb 4cc1 823d f319 cebc
00000080: c096 75bc d0e1 b6bc 012b 3abd 241d 81bd
00000090: 87b9 ba3d 1a89 183e feba 69bd 3cf2 b7bc
000000a0: 5475 8f3d e297 873d d52d 4cbd 9f54 013d
000000b0: c193 cd3b d49c 48bc 77f2 573d df5c bd3d
000000c0: 24fd 8ebe d2ed 823e 40e4 1c3d fa73 433d
000000d0: 82b2 d5bd 0396 353e 9d90 6d3d 4eaa 3bbd
000000e0: 4a93 e4bc e119 d7bd 44a8 c5bb f129 363e
000000f0: 05a1 21be cf4e 24be 7627 893c c92d d4be

model/transformer_block_1/32608 f4 [64]
-0.009440961 0.008324235 0.006738039 0.028688248 0.023860473 0.026731689 0.028737614 -0.02973815
0.028685302 0.0036711227 0.0008964337 0.0085656755 -0.0047927164 -0.008586114 0.0165972 -0.017377561
0.002179873 0.005452337 0.021890981 -0.018270066 0.008221954 0.00757658 0.0063704834 -0.0065290504
-0.01802091 0.01882844 0.021193488 -0.013781249 0.03438093 0.012130141 -0.06435499 0.0026816097
-0.008207679 -0.016395982 0.030447988 0.0180883 -0.018009493 0.04400336 0.007347399 0.0147208255
-0.021840444 -0.00830957 0.009640556 -0.01481012 -0.041207444 0.022597048 -0.030581601 -0.0034143578
-0.010446288 -0.028857116 -0.00066593854 -0.006709826 -0.01854513 -0.010177281 -0.0019577907 -0.0001668776
-0.025673056 0.024317956 -0.010749546 0.020306306 -0.013500072 0.020285824 -0.0066170604 0.0008101991
00000000: 43ae 1abc 5f62 083c c5ca dc3b 9e03 eb3c
00000010: 0a77 c33c 6afc da3c 256b eb3c 6c9d f3bc
00000020: 70fd ea3c 3897 703b a6fe 6a3a 0c57 0c3c
00000030: 380c 9dbb c6ac 0cbc daf6 873c 635b 8ebc
00000040: 33dc 0e3b 85a9 b23b b754 b33c 1bab 95bc
00000050: 60b5 063c f644 f83b 7dbf d03b a5f1 d5bb
00000060: 96a0 93bc 1a3e 9a3c f79d ad3c bfca 61bc
00000070: 05d3 0c3d 80bd 463c 8dcc 83bd f2bd 2f3b
00000080: 8079 06bc de50 86bc 0f6e f93c ea2d 943c
00000090: a588 93bc de3c 343d 73c2 f03b 9e2f 713c
000000a0: bbea b2bc dd24 08bc 6cf3 1d3c 25a6 72bc
000000b0: 23c9 28bd 721d b93c 4486 fabc 6bc3 5fbb
000000c0: e826 2bbc c265 ecbc 6192 2eba 1ade dbbb
000000d0: f5eb 97bc 9cbe 26bc 474e 00bb ddfb 2eb9
000000e0: 4d50 d2bc 7336 c73c dd1e 30bc 6959 a63c
000000f0: 682f 5dbc 752e a63c edd3 d8bb 8b63 543a

model/transformer_block_1/32612 f4 [64]
-0.0059703733 -0.019210158 0.017232737 -0.028010078 -0.0063875555 -0.03570353 0.021780131 0.0040840358
0.028079348 0.0034506454 -0.059366062 0.009487809 -0.10353202 0.038696826 -0.041637044 0.04098178
0.02707217 0.048161376 0.022019958 0.08256267 -0.03565062 0.020005899 -0.0057611116 0.01914818
0.010867758 -0.09544976 0.047559522 -0.07046496 -0.019164251 0.042730875 -0.031279325 0.022204835
-0.022385385 -0.14536451 0.032088898 0.058898393 -0.028515037 0.041851368 0.027475523 0.019468172
-0.010536959 0.059576865 -0.014033959 0.06967612 -0.040412143 0.01952535 -0.02642672 -0.027367279
0.07523307 -0.006722421 0.036320817 0.05441834 -0.03287221 -0.057954848 0.03818876 0.010951939
-0.0509698 0.001026706 0.04631148 -0.055807456 0.07467787 -0.0025922037 -0.022075174 0.013474025
00000000: 1fa3 c3bb 9f5e 9dbc ab2b 8d3c 6475 e5bc
00000010: b34e d1bb dd3d 12bd 3f6c b23c 60d3 853b
00000020: a906 e63c 3924 623b d429 73bd c172 1b3c
00000030: 9808 d4bd 9080 1e3d 9b8b 2abd 83dc 273d
00000040: 75c6 dd3c dd44 453d 3363 b43c 9e16 a93d
00000050: 6206 12bd 69e3 a33c b5c7 bcbb a5dc 9c3c
00000060: ae0e 323c 2a7b c3bd c6cd 423d ef4f 90bd
00000070: 59fe 9cbc 9206 2f3d c01e 00bd eae6 b53c
00000080: 8e61 b7bc 6fda 14be a66f 033d 713f 713d
00000090: 5e98 e9bc 576c 2b3d 5914 e13c b77b 9f3c
000000a0: 36a3 2cbc df06 743d b1ee 65bc 5bb2 8e3d
000000b0: 3487 25bd a0f3 9f3c d97c d8bc 5831 e0bc
000000c0: cc13 9a3d c147 dcbb 23c5 143d c4e5 5e3d
000000d0: 03a5 06bd 1062 6dbd d16b 1c3d c36f 333c
000000e0: b6c5 50bd 8992 863a 1bb1 3d3d 5c96 64bd
000000f0: b6f0 983d f6e1 29bb ffd6 b4bc 28c2 5c3c

model/transformer_block_1/32614 f4 [64]
0.9995584 1.0019754 0.99894387 0.97688484 1.0320526 0.97119164 0.98017424 0.9735238
1.0089082 0.9809366 1.0686481 0.9059205 0.9545757 0.9344581 1.1327591 0.9263541
0.92993736 0.9131089 1.1273509 0.93060267 1.0397615 1.0014827 0.9941362 0.97598577
0.9991376 0.9150712 1.0301375 0.9427284 0.8707477 1.0304022 1.0302461 1.0315318
1.0700898 1.0486327 0.90036005 0.9659727 1.0009897 0.85282713 0.9913195 1.019608
0.97775495 1.0560008 1.0697373 0.86765695 0.97323513 0.9746935 0.9244385 0.9733501
0.95378524 1.0585114 0.9379635 0.9561009 0.9787038 0.97632366 1.0657634 0.7779968
0.9914823 1.0954299 1.0783864 0.8977439 0.930445 1.0051005 0.930925 0.95399535
00000000: 0fe3 7f3f bb40 803f c9ba 7f3f 2015 7a3f
00000010: 4d1a 843f 04a0 783f b3ec 7a3f db38 793f
00000020: e723 813f a91e 7b3f 76c9 883f 68ea 673f
00000030: 135f 743f a538 6f3f 40fe 903f 8b25 6d3f
00000040: 6010 6e3f 81c1 693f 094d 903f fa3b 6e3f
00000050: e816 853f 9630 803f b67f 7e3f 34da 793f
00000060: 7bc7 7f3f 1b42 6a3f 8cdb 833f a656 713f
00000070: 52e9 5e3f 38e4 833f 1bdf 833f 3c09 843f
00000080: b4f8 883f 9939 863f ff7d 663f fd49 773f
00000090: 6e20 803f e152 5a3f 1dc7 7d3f 8482 823f
000000a0: 264e 7a3f 092b 873f 27ed 883f c41e 5e3f
000000b0: f025 793f 8385 793f 00a8 6c3f 792d 793f
000000c0: 452b 743f 4d7d 873f 601e 703f 07c3 743f
000000d0: 558c 7a3f 59f0 793f ef6a 883f cc2a 473f
000000e0: c9d1 7d3f 0c37 8c3f 9108 8a3f 8bd2 653f
000000f0: a531 6e3f 22a7 803f 1a51 6e3f 0a39 743f

model/transformer_block_1/32616 f4 [64]
-0.022421692 -0.042592756 0.008682018 -0.037684847 0.017354121 -0.033987366 -0.008325442 0.018087711
0.024634384 -0.0145199485 -0.06771291 -0.020088324 -0.12595855 0.023344547 -0.05460913 0.03251401
0.030646581 0.033262346 0.014512143 0.06619642 -0.0579038 0.024397513 0.0094556175 0.042714827
0.019836742 -0.14183182 0.021728354 -0.056934528 -0.019347398 0.025220687 -0.032951303 0.0041199997
-0.025083203 -0.13561854 0.03825573 0.06649879 0.008256738 0.023514317 0.020190656 0.027752042
-0.02345748 0.06107272 -0.015787052 0.069090314 -0.050991636 0.006754854 -0.037583917 -0.0054119523
0.04212794 -0.018763717 0.05386309 0.053945433 -0.008980876 -0.08318105 0.0036848956 0.028939078
-0.069719955 0.011785545 0.05451107 -0.08149767 0.0620633 -0.0016523676 -0.04848443 0.01930934
00000000: b2ad b7bc be75 2ebd 063f 0e3c 6d5b 1abd
00000010: 3b2a 8e3c 5636 0bbd 6f67 08bc ae2c 943c
00000020: 0cce c93c 14e5 6dbc 11ad 8abd 4590 a4bc
00000030: 47fb 00be 103d bf3c d3ad 5fbd 692d 053d
00000040: 8a0e fb3c 193e 083d 57c4 6d3c fd91 873d
00000050: 892c 6dbd 4bdd c73c bceb 1a3c bef5 2e3d
00000060: aa80 a23c 5c3c 11be a9ff b13c 2e34 69bd
00000070: 6f7e 9ebc 9d9b ce3c f2f7 06bd 1001 873b
00000080: 4a7b cdbc 96df 0abe 0ab2 1c3d 8530 883d
00000090: 4547 073c 19a1 c03c e066 a53c 4058 e33c
000000a0: e729 c0bc 6327 7a3d d953 81bc 397f 8d3d
000000b0: 9bdc 50bd d357 dd3b 98f1 19bd bf56 b1bb
000000c0: 598e 2c3d 5eb6 99bc 8b9f 5c3d e3f5 5c3d
000000d0: 8624 13bc d45a aabd 4a7e 713b a511 ed3c
000000e0: 56c9 8ebd 2918 413c 0047 5f3d 40e8 a6bd
000000f0: 1636 7e3d 4294 d8ba 9c97 46bd 9f2e 9e3c

model/transformer_block_1/32620 f4 [128]
-0.07498994 -0.10811507 -0.13908748 -0.17116342 -0.13441202 -0.052905574 -0.12028636 -0.073369
-0.107402615 -0.13392976 -0.09849718 -0.09746585 -0.07199549 -0.11203221 -0.089429885 -0.11022253
-0.06441839 -0.09012302 -0.12761478 -0.1325629 -0.10987995 -0.11848858 -0.10021923 -0.03521229
-0.072771125 -0.053945277 -0.11226049 -0.07291662 -0.08666376 -0.08378257 -0.10668687 -0.11790935
-0.13942455 -0.08313285 -0.06789793 -0.16464806 -0.035852753 -0.12489564 -0.05813621 -0.09008716
-0.07623972 -0.118842304 -0.15031214 -0.11455042 -0.11393358 -0.04704217 -0.111305416 -0.109697916
-0.12512556 -0.1149206 -0.05312223 -0.1071857 -0.07510457 -0.08726886 -0.15682048 -0.062384613
-0.13443068 -0.11518233 -0.14226615 -0.06765437 -0.10411177 -0.10844654 -0.12502998 -0.054736238
-0.07623647 -0.06813905 -0.06642025 -0.12193365 -0.08918287 0.0056695663 -0.18529238 -0.0757853
-0.07595497 -0.08219224 -0.18331935 -0.10324396 -0.112292886 -0.0769682 -0.08049819 -0.13197486
-0.12682661 -0.13256258 -0.048303436 -0.08603429 -0.16085088 -0.15277337 -0.07263564 -0.08177568
-0.083907805 -0.114878125 -0.14136694 -0.08772145 -0.15023704 -0.11139158 -0.13318998 -0.16209391
-0.10165392 -0.12910299 -0.06930693 -0.08104036 -0.12720335 -0.0601167 -0.07644071 -0.09256045
-0.109626524 -0.17009659 -0.08532834 -0.057096437 -0.0036665918 -0.055268228 -0.09283141 -0.1565957
-0.09548188 -0.14741835 -0.12616202 -0.07451115 -0.13360164 -0.08441858 -0.1377604 -0.11558667
-0.100694105 -0.064481676 -0.20056921 -0.13724332 -0.14971222 -0.05941787 -0.09022775 -0.12898396
00000000: 5394 99bd 6f6b ddbd f36c 0ebe 7745 2fbe
00000010: 4ea3 09be 84b3 58bd b258 f6bd 7c42 96bd
00000020: e7f5 dbbd e224 09be e4b8 c9bd 2d9c c7bd
00000030: 5f72 93bd 2571 e5bd 0427 b7bd 5abc e1bd
00000040: caed 83bd 6b92 b8bd 73ad 02be 92be 07be
00000050: bd08 e1bd 24aa f2bd bd3f cdbd c33a 10bd
00000060: 0709 95bd b9f5 5cbd d4e8 e5bd 4f55 95bd
00000070: c57c b1bd 3296 abbd a57e dabd 757a f1bd
00000080: 4fc5 0ebe 8e41 aabd 120e 8bbd 8099 28be
00000090: 56da 12bd 49c9 ffbd 3c20 6ebd 9e7f b8bd
000000a0: 9223 9cbd 9863 f3bd 6deb 19be 6999 eabd
000000b0: 0256 e9bd 4aaf 40bd 18f4 e3bd 4da9 e0bd
000000c0: ea20 00be 7e5b ebbd b296 59bd 2d84 dbbd
000000d0: 6dd0 99bd 04ba b2bd 8c95 20be 0287 7fbd
000000e0: 32a8 09be b7e4 ebbd 38ae 11be 608e 8abd
000000f0: 8d38 d5bd 3819 debd dc07 00be 1b33 60bd
00000100: de21 9cbd 7c8c 8bbd 5707 88bd 59b8 f9bd
00000110: 82a5 b6bd c5c7 b93b 49bd 3dbe 5335 9bbd
00000120: 488e 9bbd 6854 a8bd 11b8 3bbe 9271 d3bd
00000130: d0f9 e5bd 81a1 9dbd 3cdc a4bd 6b24 07be
00000140: d6de 01be 7cbe 07be d3d9 45bd bf32 b0bd
00000150: 18b6 24be 9f70 1cbe ffc1 94bd 027a a7bd
00000160: dbd7 abbd 3945 ebbd 7fc2 10be 4ea7 b3bd
00000170: bdd7 19be 4521 e4bd f462 08be f2fb 25be
00000180: ee2f d0bd 9333 04be cbf0 8dbd 7df8 a5bd
00000190: 9841 02be ee3c 76bd f28c 9cbd 5590 bdbd
000001a0: df83 e0bd cd2d 2ebe a0c0 aebd f4dd 69bd
000001b0: 344b 70bb f060 62bd 651e bebd a05a 20be
000001c0: 018c c3bd d6f4 16be 9e30 01be 4d99 98bd
000001d0: dece 08be a6e3 acbd 1011 0dbe b4b8 ecbd
000001e0: b638 cebd f80e 84bd 0462 4dbe 8389 0cbe
000001f0: 294e 19be 2760 73bd 54c9 b8bd 5f14 04be

model/transformer_block_1/32624 f4 [64]
-0.0019002346 0.04158284 0.0236816 0.011816376 0.005030825 -0.060615104 0.03161712 -0.0082487725
0.0095767155 0.014129002 -0.00052595965 0.02868806 -0.0010902617 0.008807402 0.034302343 -0.025909033
0.0034573972 -0.004475319 -0.008230852 0.012774928 0.036509022 -0.006949776 -0.023027176 -0.04475422
0.018395005 0.0149460705 0.00016804603 -0.023243506 0.01944504 0.030610247 -0.025564812 -0.009440002
-0.012251291 0.000494766 -0.050945397 0.015616823 -0.051177423 -0.029620195 -0.029481445 -0.023759317
0.0018977595 0.0067415335 -0.0072800256 0.015040904 0.027622981 0.02348257 -0.0077495864 0.04406836
0.02509494 -0.005793752 0.0003824386 -0.007461174 0.0013248301 0.07701589 0.014069038 0.007591724
0.033503156 -0.018296387 0.049024943 0.011482571 -0.043296866 0.014020697 0.037820023 0.01034602
00000000: 4b11 f9ba c552 2a3d eaff c13c 7999 413c
00000010: 9ed9 a43b 8b47 78bd f480 013d dc25 07bc
00000020: a8e7 1c3c 547d 673c 8ee0 09ba 3903 eb3c
00000030: 1de7 8eba ec4c 103c 9d80 0c3d 2e3f d4bc
00000040: 8095 623b b2a5 92bb b2da 06bc ee4d 513c
00000050: 7c8a 153d f2ba e3bb 7da3 bcbc 3350 37bd
00000060: 1fb1 963c 5de0 743c 8335 3039 2a69 bebc
00000070: 344b 9f3c 57c2 fa3c 4c6d d1bc 3daa 1abc
00000080: a4b9 48bc 2fb3 013a 1fac 50bd b4dd 7f3c
00000090: 6b9f 51bd 0da6 f2bc 1283 f1bc e6a2 c2bc
000000a0: 3ebe f83a 15e8 dc3b 488d eebb 206e 763c
000000b0: 9749 e23c 855e c03c 3ef0 fdbb 0681 343d
000000c0: e793 cd3c 84d9 bdbb 0a82 c839 dd7c f4bb
000000d0: eca5 ad3a 82ba 9d3d d381 663c ffc3 f83b
000000e0: 9b3a 093d 4ee2 95bc 61ce 483d 6521 3c3c
000000f0: 0e58 31bd 11b7 653c 2be9 1a3d 5a82 293c

model/transformer_block_1/32626 f4 [64]
0.97348154 1.0248022 0.9966597 0.982533 1.0566138 1.005803 0.91245747 1.0183073
1.0080615 1.0406988 1.0845149 0.9569625 0.9481749 0.93278176 1.0226827 0.9639622
0.9281737 0.94525945 1.0484582 0.8728171 0.99439937 1.0461559 0.99579144 1.0033015
1.0563903 0.9948078 0.9861511 0.94816536 0.8486628 1.0318213 1.0384538 1.0665478
1.025513 1.0212675 0.91923016 0.9768582 1.0261576 0.91514003 1.0344797 0.90111923
1.0232462 1.0315626 0.99484235 0.89663744 1.0028411 0.85372686 0.975634 0.9561275
1.0282034 1.0341527 0.90758777 0.84817094 0.9145507 0.9805384 1.0836174 0.83837694
0.93832785 1.0828842 1.0964361 0.9212317 0.91728824 0.92933494 0.92039704 0.9524581
00000000: 1636 793f b82c 833f 1725 7f3f 4887 7b3f
00000010: 1f3f 873f 27be 803f d096 693f e557 823f
00000020: 2908 813f 9e35 853f 62d1 8a3f 7ffb 743f
00000030: 97bb 723f c9ca 6e3f 44e7 823f 3ac6 763f
00000040: cb9c 6d3f 86fc 713f e133 863f f170 5f3f
00000050: f590 7e3f 70e8 853f 30ec 7e3f 2f6c 803f
00000060: cc37 873f b9ab 7e3f 6674 7c3f f7ba 723f
00000070: f741 593f b812 843f 0eec 843f a384 883f
00000080: 0344 833f e5b8 823f ab52 6b3f 6113 7a3f
00000090: 2259 833f 9e46 6a3f d569 843f c0af 663f
000000a0: bbf9 823f 3e0a 843f fdad 7e3f 088a 653f
000000b0: 195d 803f d88d 5a3f 26c3 793f c6c4 743f
000000c0: 2b9c 833f 1e5f 843f ac57 683f bb21 593f
000000d0: ff1f 6a3f 9104 7b3f fab3 8a3f df9f 563f
000000e0: 4136 703f f39b 8a3f 0558 8c3f d7d5 6b3f
000000f0: 67d3 6a3f e5e8 6d3f 249f 6b3f 4bd4 733f

model/transformer_block_1/32628 f4 [64]
-0.027144333 0.0070861788 -0.009951856 0.01945627 0.0298764 -0.03249835 0.010229459 0.03211607
-0.038583543 -0.010576196 0.021347703 -0.008400687 0.017518895 -0.013812384 0.0110705225 -0.06464474
-0.029182617 -0.030194711 -0.021731462 -0.04336049 -0.004402841 -0.0037090378 -0.017161751 -0.043419734
0.00021846493 -0.0046525407 -0.04069867 0.008173684 0.0072919945 -0.037702262 0.010074496 -0.042001862
0.0066636624 -0.005159544 -0.0595145 -0.017869884 -0.022626719 -0.0050981613 0.012431123 0.004042767
0.029115936 -0.026727563 0.03651032 -0.014644639 0.008712218 -0.041350663 0.035505917 0.0053071943
0.01427321 0.022095859 -0.034091093 -0.013699833 -0.007212592 0.0315965 -0.013043197 -0.034621835
0.031165253 0.03829067 0.0003449886 0.0016292515 -0.05236667 0.027542433 0.016091073 -0.00025136667
00000000: cb5d debc 2d33 e83b 1c0d 23bc c162 9f3c
00000010: 5abf f43c fd1c 05bd 7699 273c 248c 033d
00000020: c709 1ebd c847 2dbc 61e1 ae3c 09a3 09bc
00000030: c983 8f3c 564d 62bc 2361 353c 7664 84bd
00000040: 6210 efbc e65a f7bc 2e06 b2bc c59a 31bd
00000050: b545 90bb 5413 73bb cd96 8cbc e4d8 31bd
00000060: bc13 6539 5774 98bb a6b3 26bd eaea 053c
00000070: aff1 ee3b b06d 1abd 800f 253c 250a 2cbd
00000080: da5a da3b 6411 a9bb 7ac5 73bd dd63 92bc
00000090: ab5b b9bc 7a0e a7bb e9ab 4b3c 3079 843b
000000a0: 8b84 ee3c c3f3 dabc d88b 153d 11f0 6fbc
000000b0: b1bd 0e3c 505f 29bd a76e 113d f9e7 ad3b
000000c0: 2fda 693c 6002 b53c 1aa3 0bbd 4475 60bc
000000d0: 9b57 ecbb 556b 013d 22b3 55bc a0cf 0dbd
000000e0: 464e ff3c add6 1c3d 96df b439 9c8c d53a
000000f0: 6f7e 56bd aba0 e13c 6dd1 833c ddc9 83b9

model/transformer_block_2/32633 f4 [64]
-0.12117951 -0.11752069 -0.0100385165 0.021248912 -0.030995138 0.023341972 0.046613235 -0.08133082
0.08435931 -0.0132516995 0.0027524363 -0.0754428 0.12626992 0.120761134 0.1307615 0.11793102
-0.025074705 0.029701246 0.0074663195 0.095538646 -0.045117233 0.078975976 0.019299923 0.059917826
-0.0145077435 0.03678722 0.03649076 0.178709 -0.06582314 -0.04494149 0.046803057 -0.0011648097
0.043278027 0.042218674 -0.034818515 0.042816814 0.004480621 -0.07094264 -0.073575504 0.04924654
0.013387118 0.049328085 0.10585454 -0.073605515 -0.0070865834 -0.020341018 0.045188677 -0.07294658
0.024366101 -0.098972745 0.095885485 -0.051967964 -0.044339314 0.017941514 0.04291928 -0.014369674
0.03153007 0.045784645 -0.15882978 -0.060571242 -0.053895954 0.06622546 0.0066545145 0.036504872
00000000: f72c f8bd b0ae f0bd 9778 24bc 3312 ae3c
00000010: 84e9 fdbc aa37 bf3c 85ed 3e3d c690 a6bd
00000020: 93c4 ac3d a81d 59bc 3862 343b c181 9abd
00000030: e74c 013e 9d51 f73d 58e6 053e d285 f13d
00000040: 7869 cdbc 0750 f33c 07a8 f43b c4a9 c33d
00000050: d9cc 38bd 28be a13d df1a 9e3c 656c 753d
00000060: e3b1 6dbc 32ae 163d 5677 153d 7eff 363e
00000070: 48ce 86bd 9114 38bd 90b4 3f3d 87ac 98ba
00000080: 4d44 313d 7ded 2c3d dc9d 0ebd af60 2f3d
00000090: 2cd2 923b 604a 91bd c1ae 96bd bdb6 493d
000000a0: a455 5b3c 3f0c 4a3d 44ca d83d 7dbe 96bd
000000b0: 9236 e8bb 35a2 a6bc c317 393d 0465 95bd
000000c0: 6b9b c73c 39b2 cabd 9c5f c43d 5cdc 54bd
000000d0: 249d 35bd 15fa 923c 20cc 2f3d c86e 6bbc
000000e0: ad25 013d ae88 3b3d 46a4 22be 8d19 78bd
000000f0: 01c2 5cbd 37a1 873d 1d0e da3b 2286 153d

model/transformer_block_2/32637 f4 [64]
0.12804192 -0.016814442 -0.06986759 -0.084698625 0.039165862 0.03488619 0.05515177 0.03277653
0.08280081 0.0075407927 -0.024139132 0.0010137984 0.016291356 -0.012234247 -0.0027098036 -0.028443858
0.083237685 -0.016315466 0.070866376 0.049043436 0.036571614 0.025397731 0.038257327 0.047575746
0.065412514 0.057892445 -0.17759243 0.17339653 0.08891797 0.07470724 -0.07081442 -0.06531683
0.0563605 -0.027742216 0.038995016 0.14027771 -0.08538898 -0.051153228 -0.025986856 0.017057275
-0.0043397583 0.033354662 -0.02536563 0.0027690313 -0.0093246875 -0.018073888 -0.048354328 -0.067961544
-0.04861793 0.1252054 0.15522857 0.0021757039 -0.014712744 -0.012929733 -0.06233852 0.065468594
0.006538657 -0.02058688 0.08291168 -0.11891108 0.044289492 0.0008686905 0.023173 0.01015958
00000000: 6c1d 033e 71be 89bc bd16 8fbd 7976 adbd
00000010: 626c 203d d2e4 0e3d d3e6 613d af40 063d
00000020: 7993 a93d c118 f73b 6ebf c5bc 6ee1 843a
00000030: 7375 853c 2772 48bc f696 31bb 1803 e9bc
00000040: 8578 aa3d 03a8 85bc 6422 913d c5e1 483d
00000050: 1ecc 153d e70e d03c b7b3 1c3d c9de 423d
00000060: fff6 853d a120 6d3d cada 35be dc8e 313e
00000070: a01a b63d 1c00 993d 2707 91bd d5c4 85bd
00000080: 45da 663d a543 e3bc 3db9 1f3d f6a4 0f3e
00000090: 6be0 aebd 0c86 51bd 63e2 d4bc b3bb 8b3c
000000a0: 8834 8ebb e69e 083d 95cb cfbc a378 353b
000000b0: 93c6 18bc b10f 94bc 300f 46bd 6c2f 8bbd
000000c0: 9823 47bd d835 003e 3df4 1e3e 4196 0e3b
000000d0: b90d 71bc 3bd7 53bc ad56 7fbd 6614 863d
000000e0: 3b42 d63b d1a5 a8bc 99cd a93d a787 f3bd
000000f0: e668 353d d5b8 633a 4ed5 bd3c 5e74 263c

model/transformer_block_2/32641 f4 [64]
0.03240041 0.008554224 0.009202921 -0.017477999 -0.08991812 -0.031651348 -0.034733407 0.022261705
-0.019678669 -0.00395705 -0.033667088 0.002786362 0.02407213 0.062769696 -0.022969812 0.0071391687
0.049721245 -0.009059756 0.004078149 -0.033331268 0.041576575 0.00038812764 0.0063834125 -0.028711379
0.03496086 0.03646464 -0.008313035 -0.012193782 -0.011989494 -0.007032053 0.030637814 0.03705999
0.047005005 0.04282512 0.018726042 -0.021998562 -0.056161266 0.056166638 0.021954594 0.019818809
0.01605202 -0.0016971853 -0.020033453 -0.065759264 0.0034577793 -0.0302785 -0.07934753 0.029830484
0.025443425 0.05014506 0.057590805 0.017886419 -0.040450882 0.010687455 0.039510883 -0.028228687
-0.014769263 0.0081545785 0.05248678 -0.0256455 0.04257412 0.0154512655 0.009888413 0.037245534
00000000: 4bb6 043d 0427 0c3c d9c7 163c 052e 8fbc
00000010: fe26 b8bd d8a4 01bd 9e44 0ebd 2e5e b63c
00000020: 2935 a1bc 24aa 81bb 80e6 09bd 669b 363b
00000030: ea32 c53c 668d 803d 302b bcbc b0ef e93b
00000040: 81a8 4b3d 5f6f 14bc fea1 853b 5e86 08bd
00000050: 334c 2a3d 9c7d cb39 f22b d13b 2034 ebbc
00000060: 1e33 0f3d f25b 153d 6533 08bc 6ec8 47bc
00000070: 956f 44bc 236d e6bb 27fc fa3c 37cc 173d
00000080: 5288 403d 6569 2f3d 5b67 993c 5436 b4bc
00000090: 5b09 66bd fd0e 663d 1fda b33c 0e5b a23c
000000a0: 877f 833c 1774 deba 321d a4bc cbac 86bd
000000b0: e99b 623b 9e0a f8bc f580 a2bd 0f5f f43c
000000c0: bb6e d03c e864 4d3d 56e4 6b3d 8a86 923c
000000d0: d3af 25bd 6f1a 2f3c 2ad6 213d d93f e7bc
000000e0: c7fa 71bc c89a 053c 61fc 563d 8316 d2bc
000000f0: 3362 2e3d 4e27 7d3c 0303 223c c68e 183d

model/transformer_block_2/32645 f4 [64]
-0.058325913 0.05361537 0.0015045126 0.013906506 0.045756835 -0.024876859 -0.091716304 -0.020214196
0.053707257 -0.0106077995 0.030010438 -0.022778302 -0.054876715 -0.04053453 -0.03443254 0.040798206
-0.009571362 0.046308193 0.0030834079 -0.055662103 -0.061160304 0.02879004 0.004632789 -0.10477347
0.09242508 -0.022764478 -0.0069208816 -0.070989385 -0.043821488 -0.002424944 0.06925602 -0.01270748
-0.03232107 -0.06911925 0.022835659 0.02353789 -0.037517767 -0.07547737 -0.018167106 0.017324219
0.004333885 0.055679254 0.052651267 0.09801676 0.061436314 0.036345333 -0.054839093 0.021186205
0.043686826 -0.04625253 -0.11211094 0.083185576 -0.088009626 0.06373497 0.012090334 -0.037177853
-0.011050091 0.0385925 -0.023103531 0.11984935 -0.015264441 0.03541992 -0.042750835 -0.023494804
00000000: 27e7 6ebd ca9b 5b3d 1133 c53a 1dd8 633c
00000010: 856b 3b3d 8eca cbbc c2d5 bbbd 3e98 a5bc
00000020: 24fc 5b3d 56cc 2dbc 73d8 f53c 9099 babc
00000030: 68c6 60bd 8907 26bd 2309 0dbd 051c 273d
00000040: 34d1 1cbc a9ad 3d3d 0013 4a3b f2fd 63bd
00000050: 3a83 7abd 17d9 eb3c a7ce 973b 7993 d6bd
00000060: 5c49 bd3d 927c babc 90c8 e2bb e262 91bd
00000070: 297e 33bd cfeb 1ebb 1ad6 8d3d 0933 50bc
00000080: 1963 04bd 658e 8dbd d911 bb3c 88d2 c03c
00000090: 3bac 19bd e193 9abd 2fd3 94bc 85eb 8d3c
000000a0: 4303 8e3b ee0f 643d dba8 573d 03bd c83d
000000b0: a5a4 7b3d d8de 143d f59e 60bd b18e ad3c
000000c0: f5f0 323d 4b73 3dbd 6c9a e5bd 335d aa3d
000000d0: 643e b4bd 7b87 823d 8916 463c ce47 18bd
000000e0: 710b 35bc 2b13 1e3d 9e43 bdbc 9373 f53d
000000f0: b517 7abc 7a14 113d 801b 2fbd 2d78 c0bc
